LABS_PROGECTS/best_model.pth (torch, 72249 bytes, 6 tensors)

fc1.weight f4 [128, 2]
000000 c2 e0 c5 be 88 1c 3b 3e 7e f2 89 3c b0 fa 2e 3f
       -0.3864804 0.18272603 0.016839262 0.6835127
000010 b8 36 2b be 9a d8 0d bf 25 20 a5 be 08 17 02 bd
       -0.16720092 -0.5540863 -0.32251087 -0.031760246
000020 ec 0c d6 3e 69 47 1c bd 38 7c 2c bf 30 4a 16 3c
       0.41806734 -0.03815404 -0.6737704 0.009172961
000030 d3 b0 09 be 84 61 96 be 23 70 93 be 18 ea 58 bc
       -0.1344636 -0.29371274 -0.2879649 -0.013239406
000040 ee a7 1d 3f cb 79 42 bd c6 af 9d be 9a 82 9c bd
       0.61584365 -0.047479432 -0.30798167 -0.07642098
000050 02 c5 95 bd c7 84 63 3e 91 48 8f 3e 1a 45 f0 be
       -0.07312967 0.2221862 0.2798505 -0.4692772
000060 15 cd d4 3d d2 23 2d bf a4 19 05 bf d8 e0 f6 bd
       0.10390679 -0.6763278 -0.5199225 -0.12054604
000070 aa 6d 31 3e 4a 62 43 bf ba 98 db 3e 11 bf 8f 3e
       0.1732699 -0.7632185 0.4288996 0.2807546
000080 82 8f a4 be 51 3c b6 be 8d 9d b7 3e f0 07 73 3e
       -0.32140738 -0.35592893 0.3586239 0.23733497
000090 0f 6b 10 bc c8 2c 7c bb 33 df 66 bd bd 85 f2 be
       -0.008814587 -0.003847884 -0.056365203 -0.4736766
0000a0 f6 2a 07 bf 92 65 11 3e ae 76 80 be 8e 1b 81 3e
       -0.5279993 0.14198902 -0.25090545 0.25216335
0000b0 8b 4c 1b bd a7 2f d0 be e7 6d 1e be 5f f1 e6 be
       -0.037914794 -0.40661356 -0.15471612 -0.45106027
0000c0 97 30 09 bf a0 40 ed bd 3c cb 3b 3d 9b 43 d9 3e
       -0.5358977 -0.11584592 0.045848116 0.4243439
0000d0 91 04 52 3e 49 03 d8 be 42 5d f9 be 96 6e 51 be
       0.20509554 -0.42190006 -0.48703963 -0.20452341
0000e0 56 33 06 3f fd cb a2 be 5f 90 a1 3e 77 39 46 3e
       0.5242208 -0.31796256 0.3155546 0.19357859
0000f0 a0 48 bd be 67 3d ab 3e e7 aa 50 be d3 bc d0 3e
       -0.3696947 0.33445284 -0.20377694 0.4076906
000100 a1 7b 6a be 13 cd e1 3e 2c ff 14 3f c5 71 a0 bc
       -0.22898723 0.44101772 0.5820186 -0.0195855
000110 3f df eb 3e ce 9d 9c bd f2 1c b4 3e 4c cd 76 3e
       0.4606876 -0.07647286 0.35178334 0.24101752
000120 dd bd 66 3e 6e be 31 3f d3 21 38 3e f8 6f 02 be
       0.22533365 0.694312 0.17981653 -0.12738025
000130 f4 61 83 be b2 28 72 3e 92 ec 30 3e 8b e3 02 bf
       -0.2566067 0.23648337 0.17277744 -0.51128453
000140 70 99 c2 3e c2 43 85 3e a7 68 e8 be 6c 14 05 3e
       0.3800769 0.26028258 -0.45392343 0.12996072
000150 2b 01 c9 be e2 8c 10 bf bb 47 bc bd 4c 9c 24 bf
       -0.39258704 -0.5646497 -0.09193369 -0.6430099
000160 36 86 f2 be 23 d5 d9 be 8d 32 b4 3e 35 b2 6e 3e
       -0.4736802 -0.42545423 0.35194817 0.23310168
000170 e3 be f1 be f5 9d 57 3e 9b eb 83 be bf cb fe 3e
       -0.47215948 0.2105635 -0.2576569 0.4976482
000180 5e ce 3b 3f 24 b7 74 3e 6c 93 9c bd f1 1f bd be
       0.73361766 0.23897988 -0.07645306 -0.36938432
000190 a9 0c a2 be 62 a0 f9 be 2b ac 32 be 1a 69 bd 3c
       -0.31650284 -0.48755175 -0.1744849 0.023121405
0001a0 7b 03 ac 3d 2d ce b8 be 2a 1e b7 3d 89 85 b3 3e
       0.08399101 -0.360948 0.089413 0.35062817
0001b0 d7 12 ea be 2b 42 5a be f4 bb a9 be 7f 3f 1e 3f
       -0.457175 -0.21314304 -0.3315121 0.6181564
0001c0 22 13 0d 3f 93 7b dd be 01 3c af be 01 3b 9f be
       0.5510732 -0.43258342 -0.34225467 -0.31099704
0001d0 61 eb ed bc 65 1b cd be ac 82 de be 86 4e f4 3d
       -0.029042901 -0.40059963 -0.4345907 0.1192904
0001e0 43 86 e1 3e 6a 65 96 3e 8b 08 39 3e da 85 1b 3f
       0.44047746 0.29374248 0.18069665 0.60751116
0001f0 21 f4 23 3f 62 41 89 3e b1 5f 79 be 50 23 c6 3c
       0.64044386 0.26807696 -0.2435291 0.02418676
000200 22 ba c9 3e 15 0e 7c 3e 82 d7 a1 be d2 45 91 3e
       0.3939982 0.24614747 -0.31609732 0.2837358
000210 eb 9c 21 3f 12 47 c2 3d 8f c5 97 3e 28 83 12 bf
       0.6313006 0.09486212 0.29642913 -0.5723138
000220 3e 80 87 be d5 39 84 3e 54 02 09 bd 70 82 0d 3f
       -0.2646503 0.25825372 -0.033449486 0.55277157
000230 02 4b b4 3e dc 76 d8 be 2f 94 8b be fd e7 04 3f
       0.35213476 -0.42278183 -0.27261493 0.51916486
000240 82 95 53 bd 12 f9 fe be 61 c4 93 be 23 23 87 3e
       -0.051656254 -0.497994 -0.28860763 0.26393995
000250 fe ae c0 3d 0d 4f 10 3e f8 cc fe be f9 32 4b be
       0.09408377 0.14092655 -0.49765754 -0.19843663
000260 1c c1 72 be 7b d4 f0 3e 59 7f e5 bc 36 e8 c6 be
       -0.23706478 0.4703711 -0.028014826 -0.38849038
000270 66 39 0e bf d3 fa b1 3d 5d d7 9a be 16 95 57 be
       -0.55556333 0.08690419 -0.30242434 -0.21052966
000280 ee ff 71 3d 8c ba 02 3f 6e 00 8b 3c 72 88 3f 3e
       0.059081964 0.510659 0.016967978 0.18704394
000290 e9 c4 e3 3e 9f 4a 2e 3e a6 86 f1 be 1a 8c 95 be
       0.44486168 0.17020653 -0.4717304 -0.29208452
0002a0 2f 3f 57 3f f2 d5 e7 bd 68 23 fc 3d b0 56 10 3e
       0.84080786 -0.11320104 0.12311441 0.14095569
0002b0 01 f0 70 be 6e c6 b5 3c 3b b9 0f bc 68 19 1d 3e
       -0.23529054 0.022189345 -0.00877219 0.15341723
0002c0 37 f6 d5 3e 23 b3 f7 be b7 fe e1 3e b0 27 37 3e
       0.4178941 -0.48378858 0.44139645 0.17886233
0002d0 2e 95 a5 3d 3f fe 7a 3e 42 dc 1d 3e f2 e9 62 3e
       0.080850944 0.2451105 0.15416053 0.22159556
0002e0 d9 ca 94 3d 10 56 be 3e 9d 9b 91 bd fc 52 ba be
       0.072652526 0.37175035 -0.07109759 -0.36391437
0002f0 3c d9 a5 3e 21 c2 5b 3e e6 9f 77 be 24 69 f2 3e
       0.323923 0.21460773 -0.2418209 0.4734584
000300 0b a0 7b 3e e9 89 00 bf 97 1a 18 3e d7 2e 20 bf
       0.2457277 -0.50210434 0.14853893 -0.6257147
000310 fc 5a 1e 3f 14 02 59 3e ca 13 29 be 99 30 0b 3d
       0.6185758 0.21192199 -0.16511455 0.033981893
000320 4e 91 8f be 79 fc 83 3e 8f a1 c7 3e 08 2d 79 3e
       -0.28040546 0.2577856 0.38990447 0.24333584
000330 8d e7 03 3e eb 69 1b 3e 04 f3 1e be 7f 32 d0 be
       0.12881298 0.15177123 -0.1552239 -0.40663525
000340 e3 5b 43 bd ce 03 b7 be 85 bc da be aa 85 07 3e
       -0.047695052 -0.3574509 -0.42721954 0.13234583
000350 f0 07 a6 3e 67 d2 40 3e 17 64 45 be 51 83 bf 3e
       0.3242793 0.18830262 -0.19276462 0.37404874
000360 18 d7 32 bd 36 fa ca be b9 fb 69 be e2 66 c7 be
       -0.04366216 -0.3964402 -0.22849931 -0.3894568
000370 6f ff 8d be 90 24 09 3f 53 cf 3b 3f 54 12 73 3e
       -0.27733943 0.53571415 0.73363227 0.2373746
000380 aa 70 48 3f 2a 7d 4f be 9e 7f be 3e b2 09 73 3e
       0.7829691 -0.2026259 0.3720674 0.23734167
000390 96 ab 48 3e ff 9c c7 be f6 fe 33 3d 55 6b 33 3f
       0.19596705 -0.38986966 0.04394432 0.7008565
0003a0 55 71 db 3e 9d 2e 80 3e ed 30 f6 be 21 a2 f8 3d
       0.42859903 0.25035563 -0.48084202 0.12140299
0003b0 b8 ed 14 bd 5b 5f 5a bf 67 7d ba 3e f7 f2 5d 3e
       -0.03635952 -0.8530175 0.364238 0.21674715
0003c0 6b f0 72 be 21 d9 62 be 35 8f 56 be 32 0d cf 3e
       -0.23724525 -0.2215314 -0.20953067 0.40439755
0003d0 a5 35 02 3f a7 fb 5d be 76 bf e0 3e 49 72 43 3e
       0.50863105 -0.21678029 0.43896073 0.19086565
0003e0 97 99 20 bf 22 19 93 be c3 78 63 be 52 94 d5 3e
       -0.6273436 -0.28730112 -0.22214036 0.41714722
0003f0 ba 08 a9 be ab 67 d4 3e 15 0e 9a 3e dc fe 9a bd
       -0.3301447 0.41485342 0.3008887 -0.07568142

fc1.bias f4 [128]
000000 a3 8b 1a be 02 3e c0 bd 32 71 09 bd 4e 68 82 3d
       -0.1509233 -0.09386827 -0.033555217 0.06367551
000010 86 c9 76 3c 69 31 13 3d 0e 08 30 be c3 7c 64 3d
       0.015062695 0.035935793 -0.17190573 0.055783045
000020 4c 7a a1 3c 3a 59 b8 3c 70 20 27 3e c2 c5 0f 3d
       0.019711636 0.022503484 0.16320968 0.035100706
000030 d2 14 f4 3c 4e a2 f9 bd 2b c7 ca 3c 35 12 2c be
       0.029795084 -0.1218916 0.024753174 -0.1680382
000040 48 3d 90 bd 7d 59 08 be a3 27 96 bc 8a 62 49 be
       -0.070429385 -0.13315387 -0.018329447 -0.19666496
000050 73 cb 27 be 85 36 25 be e8 6f 29 be 5b 27 e3 3c
       -0.16386203 -0.16134079 -0.16546595 0.027728727
000060 5e 52 cf 3c 82 29 5a 3c 14 74 bf 3c 89 7c 72 3c
       0.02530783 0.01331556 0.02337078 0.014800199
000070 d3 8e e8 bd 02 7f e7 bd 84 ff 59 be 5b e3 18 bd
       -0.113553666 -0.11303522 -0.21288878 -0.037326198
000080 fc 2a 1b bd c3 80 e4 3c 66 61 80 3c 39 9f 09 be
       -0.03788279 0.02789343 0.015671443 -0.13439645
000090 4b 9d 76 3c af c0 9c 3c ba 98 13 be 2d bf 0b 3d
       0.01505215 0.019134847 -0.1441373 0.034117866
0000a0 23 d6 0b be d8 b0 0b be a8 c2 80 bd c5 1e fa 3c
       -0.13655905 -0.1364168 -0.06287128 0.03053225
0000b0 4a 63 68 3c 9c fc 08 be 5c b7 17 be 9d bb 36 bd
       0.014183829 -0.13377613 -0.1481604 -0.044612516
0000c0 e9 31 76 bd 10 4c 24 be d7 18 40 bd 73 ce 98 3d
       -0.06010619 -0.1604464 -0.04689869 0.07461252
0000d0 e4 d3 eb 3c f1 b4 f7 3c 61 bd 01 3d 5d df ea 3c
       0.02878756 0.030237647 0.031674746 0.028670961
0000e0 14 0d 21 be a9 a3 3b be 1b 1a 0a be 37 8a 10 be
       -0.15727645 -0.1832415 -0.13486521 -0.14115225
0000f0 50 46 0c 3d d5 05 dc bd 30 6b 15 3d 87 92 60 3d
       0.034246743 -0.107433 0.036479175 0.05482724
000100 1e 89 1e be a3 ba 3b be a7 0a 5f bd aa 9e 90 3c
       -0.15481994 -0.18332915 -0.05445352 0.017653782
000110 6a 3f 23 be ad 96 ef 3b 9b 50 1d be e7 c2 26 bd
       -0.1594216 0.007311663 -0.1536278 -0.040713217
000120 c9 54 3b be a6 e4 23 be 39 1a 34 3e ae 4b cd bd
       -0.18294062 -0.16005191 0.17588128 -0.100242004
000130 40 eb 39 bd df c6 e8 bd 8b 72 df 3c 72 f1 af 3c
       -0.045390368 -0.11366057 0.027276298 0.021477435
000140 40 5a c7 3c 9e 0c 24 3e 37 1e ed 3c 51 fa 95 bd
       0.024335027 0.16020438 0.028945072 -0.07323135
000150 a4 95 be bd 59 2c 9c 3d c2 7e 7a 3d b9 01 1e 3e
       -0.093058854 0.07625646 0.061156042 0.15430345
000160 f5 d0 24 be cd 4d af 3c ac d1 59 3d 25 5c 43 3d
       -0.16095336 0.021399403 0.053178474 0.047695298
000170 e3 cb f2 3c 48 f8 2a be 90 66 ff bd d6 64 21 bd
       0.029638236 -0.16696274 -0.12470734 -0.039402805
000180 47 a1 a2 3c 71 ff e3 3c 26 54 3d bd 1c c9 79 3d
       0.019852294 0.027831765 -0.04622283 0.06098281
000190 6f b8 23 be cd 0f 14 be 0c 22 8a 3d 1d c2 5f be
       -0.15988325 -0.14459153 0.06744775 -0.21851392
0001a0 03 a0 23 be 60 a4 0a be 61 9e f7 bd 50 6f 09 bd
       -0.15979008 -0.13539267 -0.12090755 -0.03355342
0001b0 d2 b8 22 be 1c b7 5b bd 92 fd 41 bd 89 88 54 bd
       -0.15890816 -0.053641424 -0.047360964 -0.051888023
0001c0 52 42 c9 3c b1 dd 08 be 98 39 9f 3c e4 6d d8 bd
       0.024567757 -0.13365819 0.019436643 -0.10567835
0001d0 d3 0f 0f be c1 cf 14 be 6b 84 31 3d 7c b7 03 be
       -0.1397088 -0.14532377 0.043339174 -0.12862962
0001e0 d0 ef 55 be a4 94 d0 3c e1 ef 14 3c 5b be a2 3c
       -0.20892262 0.025461502 0.009090395 0.01986616
0001f0 8f 72 94 3c c4 3e a0 3c e0 04 9d 3c a7 6d e1 3c
       0.018121032 0.019561179 0.019167364 0.027518107

fc2.weight f4 [128, 128]
000000 5f de d8 3d 83 b1 b8 bc 97 43 f2 3d ef 43 37 3d
       0.10589289 -0.022545582 0.11829298 0.04474252
000010 ec d7 c9 3c ac 8a 94 bd ce d6 80 be e0 66 41 bb
       0.024639092 -0.07253012 -0.25163883 -0.0029510781
000020 61 85 15 3e 65 22 ac bd f7 c8 4a 3c a3 81 b6 3c
       0.14601661 -0.08404998 0.012377015 0.022278612
000030 4f 3c a8 3c ef 61 6e 3e b8 c8 c0 3b e4 82 be bd
       0.02053657 0.23279546 0.0058833025 -0.09302309
000040 e6 00 0a 3e 6d ec 56 bd e5 99 3d 0b 85 b3 5f be
       0.13476905 -0.052471567 3.6515853e-32 -0.21845825
000050 9b b9 50 3d 50 41 27 3e 07 58 1f be 50 b6 08 bd
       0.050958257 0.16333508 -0.15560924 -0.03337699
000060 c6 e3 4f 3d 90 b7 8e bd 27 7a dd ba c3 51 3e be
       0.05075433 -0.069686055 -0.0016897366 -0.18585877
000070 15 5a b7 be ae 65 7b bd e1 5d 1f 3e da 3e a0 3d
       -0.35810915 -0.061376266 0.15563156 0.07824488
000080 95 cb 37 3e 6f 06 44 3e 0b 5f 8b 3d bf a2 b8 bc
       0.17948754 0.19143079 0.068052374 -0.02253854
000090 50 92 88 3d be 87 da 3d 1c 32 4b 3e a1 ae c5 3d
       0.06668532 0.10670422 0.19843334 0.096524484
0000a0 cf ad e9 bc e3 ac 5a 3d d6 4c e5 3d 26 73 01 3e
       -0.028525261 0.053387534 0.11196296 0.12641582
0000b0 3c 44 b1 3d a3 a5 88 bd 72 a1 12 3e 57 d6 36 3e
       0.08655593 -0.06672218 0.14319399 0.17855202
0000c0 94 8e b8 be a1 62 76 be 1f 3e 5f 3d a5 df 9c bc
       -0.36046278 -0.24061061 0.054502603 -0.01914961
0000d0 25 65 53 3d 3f 86 32 bd 36 2d 67 bd 72 bc 1e be
       0.05161013 -0.04358506 -0.0564396 -0.15501574
0000e0 12 0e 92 be c3 df 9f 3d e8 11 fa bd 76 7b 85 3c
       -0.2852636 0.07806351 -0.122104466 0.016294222
0000f0 4c 01 a3 3d 11 e5 11 3e 54 e9 df 3d b0 b5 36 bd
       0.07959232 0.14247538 0.10933176 -0.044606864
000100 f5 1b 80 bd af d4 38 3e bc 42 b3 be a6 1b 01 3e
       -0.062553324 0.18049882 -0.35011852 0.12608203
000110 23 ca 76 3e af 58 8f bd 01 b9 ad be 43 e1 04 3e
       0.24100547 -0.06999337 -0.3393021 0.12976556
000120 ff 38 58 be 6d f9 5d 3e 77 4d 17 3d 43 56 10 3e
       -0.21115492 0.2167718 0.03693911 0.14095406
000130 98 0d a2 3d 47 f7 1b 3c a3 26 92 bd ed d6 d9 bc
       0.07912749 0.009519405 -0.071362756 -0.026591742
000140 d6 bc ff 3c 2d 67 18 3c 56 73 00 3e e0 08 41 3e
       0.031217974 0.009301943 0.12543997 0.18851042
000150 88 f6 a1 be da 1d 2a bc fa 31 50 bc 86 00 a8 3d
       -0.316334 -0.010383094 -0.012707228 0.08203225
000160 0f f0 9a be b9 65 3f 3e 6b 73 c3 3d ab ee 90 3d
       -0.30261275 0.18691148 0.095434986 0.07076772
000170 45 87 c8 bc 67 bb 49 be 0f 8c d0 bc a9 1a 0b 3e
       -0.024478564 -0.19700395 -0.02545741 0.13584389
000180 90 8c 11 3e 08 9c dc 3d 4f ce 8f be 56 d9 b4 3b
       0.14213777 0.10771948 -0.28087088 0.0055190725
000190 85 9d 65 3e fb 98 99 bd e1 e3 16 3b 9e df 3a be
       0.2242337 -0.07499882 0.002302401 -0.18249366
0001a0 36 6c ac be 68 30 3b 3e 74 55 54 bd 8c 90 11 3e
       -0.33676308 0.18280184 -0.051839307 0.14215297
0001b0 a6 39 ad be 7f 01 2b 3e 50 20 b9 3d 0f 09 a2 be
       -0.33833045 0.1669979 0.09039366 -0.31647536
0001c0 53 1a a8 3e 45 40 8a bd 8c ae f8 3d 9a cf 31 3d
       0.32832584 -0.0675054 0.12142667 0.043410875
0001d0 91 14 1d be 23 37 15 3e 91 73 43 39 c5 d4 82 bd
       -0.15339877 0.14571814 0.00018639701 -0.06388239
0001e0 29 43 16 bd a0 78 9a bd 0e 21 31 3e ac e2 60 3e
       -0.036685143 -0.07542539 0.17297766 0.21961468
0001f0 fb 8f ea bd 34 a5 a1 be 3e 82 42 3b a7 15 9f 3d
       -0.11453243 -0.31571352 0.0029679681 0.07767802
000200 b6 77 71 3e 38 ba cd 3d 03 ba 37 3e 98 ea f5 3c
       0.23580822 0.10045284 0.17942052 0.03001909
000210 08 79 8e 3c 71 9b 42 3e f4 a3 50 3d 06 21 74 ba
       0.017391697 0.19004609 0.050937608 -0.0009312782
000220 d4 16 a8 bd f9 1a 9e 3d e1 df 6d 3c eb 5e c6 3d
       -0.08207479 0.077199884 0.014518709 0.09686073
000230 70 0e 8e 3e 9a c1 77 3e 05 33 82 3e 50 50 2a bd
       0.2774539 0.24194947 0.2542955 -0.0415805
000240 b8 23 55 3e eb 3d e1 bd bf ca 0f 2b 36 94 03 3e
       0.20814407 -0.10998138 5.108517e-13 0.12849507
000250 63 4c 28 3e 3e b0 3b 3e 9b d0 fc 3d ff bc 83 3e
       0.16435389 0.1832895 0.12344476 0.2573013
000260 9a da f6 3d fa 45 d3 bd db db d4 3d f2 45 e4 3d
       0.12053414 -0.10316081 0.103934966 0.111461535
000270 e7 11 86 3c f8 ba 02 be 4d a5 40 3e 71 2b a7 3c
       0.016365958 -0.12766635 0.18813057 0.020406457
000280 5e bb 01 3e a2 fa c2 bd 72 2a 70 bd 1d 5a e8 3b
       0.12669131 -0.09520461 -0.05863423 0.0070908205
000290 95 51 ae 3d cc 3c 5e 3c cd 13 1b 3e 65 f1 45 3e
       0.08511654 0.0135643 0.15144272 0.19330366
0002a0 20 d9 6c bd 9f 50 3e 3e 65 ad 56 3e 25 93 c9 3e
       -0.057824254 0.18585442 0.20964582 0.39370075
0002b0 5a 14 41 3e ee 00 9a bd 86 1e 78 3e 43 51 8c 3d
       0.1885542 -0.075197086 0.24230394 0.06851437
0002c0 17 94 16 bd 34 3b 7a 3d 59 4b 28 3e c8 8f 13 3d
       -0.036762323 0.061091617 0.16434993 0.036025792
0002d0 a1 bb 6f 3d f6 c9 c7 bd 36 da 2c 3e 98 57 96 3c
       0.058528546 -0.09755318 0.16880116 0.018352315
0002e0 e7 c8 e6 bd 2f 79 28 3e 86 aa cb 3d 29 4c 6a 3e
       -0.11268788 0.16452478 0.09944634 0.22880615
0002f0 14 de 0d 3c 73 80 34 3e c2 91 b4 bb 73 fc 96 3d
       0.008658905 0.17627124 -0.0055105397 0.073723696
000300 fa ec 08 be 83 02 30 3e 54 04 c7 3d d0 f6 3a 3e
       -0.1337165 0.17188458 0.097176224 0.18258214
000310 ee 28 5e 3e 8c 61 b8 bc c2 ad 50 3d 37 ee 9c 3c
       0.21695301 -0.022507451 0.05094696 0.019156558
000320 6f d9 0f 3e bd 67 39 3e c1 4f f2 bd 95 e0 18 3e
       0.14047788 0.1810598 -0.11831618 0.14929421
000330 55 49 3f 3e cb 39 27 3e c6 ce 70 3d df d6 c4 3d
       0.18680318 0.1633064 0.058790945 0.09611296
000340 70 70 ab b9 7a 38 1d be 7b af aa bd 8a a0 89 3e
       -0.00032699434 -0.15353575 -0.083342515 0.26880294
000350 b6 e8 93 3c bd f2 a1 bd 19 7c 72 3d 99 88 8f bd
       0.018055301 -0.07907627 0.05920038 -0.07008476
000360 00 68 8a 3c bf 6c 30 bd ec 67 2a be d1 38 f2 bd
       0.016895294 -0.04307246 -0.16641206 -0.11827243
000370 33 23 88 bd d1 e5 aa 3d b3 7f 7f bd 9f 14 20 3e
       -0.06647339 0.08344615 -0.062377643 0.15632866
000380 89 b0 8e 3d 9b cd 39 3e a2 36 12 bd 4d a0 b2 3c
       0.06967265 0.18144839 -0.035696633 0.021804953
000390 52 a6 15 3e 8a 3f e6 bd c6 41 40 be 81 a9 49 3d
       0.14614227 -0.11242588 -0.1877509 0.049233917
0003a0 e3 34 56 3d f0 6a 6b 3e 0f 23 3a bd 59 e7 cb 3d
       0.05229653 0.22990012 -0.04544359 0.099562354
0003b0 ad 5d 98 3d b7 22 41 3e 34 a9 59 3d 5b ac 72 bd
       0.07439742 0.18860899 0.05313988 -0.059246402
0003c0 a8 b4 52 bd 5a cb bb bd 08 cc 20 3e 06 fd 2b 3e
       -0.05144182 -0.091696456 0.15702832 0.1679574
0003d0 a7 fc e6 bd df 72 7c 3e 5c 3c d5 3e a6 31 d3 bd
       -0.11278658 0.24653195 0.41647613 -0.10312204
0003e0 f8 e6 1d 3e db d3 93 3d 25 63 76 3b 0e 03 01 3d
       0.15420139 0.072181426 0.0037595716 0.031497054
0003f0 31 14 5f 3e 7e 2a 86 3d 32 a3 7d 3d 15 79 44 3c
       0.21785046 0.065510735 0.061923213 0.011991759

fc2.bias f4 [128]
000000 62 0b b4 3d 67 94 20 be c2 f8 a0 3d 14 c5 42 be
       0.087912336 -0.15681611 0.07859947 -0.19020492
000010 51 e2 31 be 48 2c e6 3d 1f 9d 8b bb 7a 66 23 be
       -0.17371489 0.11238915 -0.0042606737 -0.1595706
000020 28 c2 1b 3e cd 13 aa 3d 68 50 1d be 96 4b 39 be
       0.15210783 0.08304558 -0.15362704 -0.1809524
000030 93 92 cc 3d 35 1c df 3d 36 52 9b 3c b8 bf 03 be
       0.09988894 0.10894052 0.0189601 -0.12866104
000040 f9 27 7c 3d 3e 04 14 3e 71 1c 12 bb 1b 8b 31 3e
       0.06156156 0.14454743 -0.0022294784 0.17338221
000050 02 c9 2b bc 0e 7d da 3d e7 d9 8a be 27 5e 81 bd
       -0.010484936 0.106683835 -0.2711937 -0.06316786
000060 58 94 5d 3d 02 bb 9f 3d 59 70 25 3d de b5 e5 3d
       0.05409655 0.07799341 0.040390346 0.11216329
000070 00 4c 43 bb cc ae 9d 3c 1e 4f 1c 3d 71 82 d9 3d
       -0.0029799938 0.019248389 0.03816139 0.10620583
000080 42 25 8c 3d 14 1e 3e 3d ee b7 43 bc 68 d0 cc 3d
       0.06843044 0.046415403 -0.011945708 0.10000688
000090 ba 6d 77 be 32 db a3 3d 24 63 8e 3d 83 fc 53 bd
       -0.24162951 0.080007926 0.06952503 -0.051754486
0000a0 91 77 72 bb 5e 1f 22 be db 10 1c 3e 48 3f 75 be
       -0.0036997537 -0.15832278 0.15240805 -0.23949921
0000b0 e1 b4 d5 3d 5f fb b1 3d fc f3 14 3e a2 a2 a5 3d
       0.104348905 0.08690523 0.14546198 0.0808766
0000c0 5e 40 26 3e 74 87 67 3d a9 65 22 3e c5 2e 02 3e
       0.16235492 0.056525663 0.15859093 0.12713154
0000d0 54 97 97 3d 30 2b da 3d 4b 42 35 be 33 64 d7 3d
       0.074019104 0.106527686 -0.1770107 0.10517158
0000e0 13 c3 4f 3d 1c 84 23 be e9 27 9a 3d ad af 16 be
       0.050723147 -0.15968364 0.075271435 -0.14715452
0000f0 e6 1f 1c 3d bd 84 c2 3d ec e0 fe bd cb 48 d0 bb
       0.03811636 0.09497974 -0.12445244 -0.006356334
000100 17 61 80 3d 91 00 93 3d e0 70 27 be 93 d2 94 3c
       0.062685184 0.071778424 -0.16351652 0.018166816
000110 5e ee 94 3d ec 55 c0 bd 4d e8 c9 3d dc d0 c7 3d
       0.072720274 -0.09391388 0.09858761 0.09756634
000120 ec 7c 27 3e 64 1b ec 3c 77 10 37 3d ab 76 8f 3d
       0.16356248 0.028821655 0.044693436 0.07005056
000130 86 87 aa 3d 95 37 0d 3d e3 66 87 3a 29 5a 89 bc
       0.0832663 0.034476835 0.0010330345 -0.016766625
000140 9b 41 80 3d 0d 39 5a be 1a 23 e8 3d 4b b0 7b bc
       0.06262513 -0.21310826 0.1133482 -0.015361856
000150 56 6b 25 3e 9c 1e 4c be 67 ff b8 bd 80 4f d3 3d
       0.16154227 -0.19933552 -0.09033089 0.10317898
000160 e1 bb 69 3d 9b 70 b3 3d 76 bd f1 3d 19 7c 37 be
       0.05706394 0.08761712 0.11803715 -0.17918433
000170 8b e7 63 3d 76 50 d2 3d d2 8b 85 3d 95 23 5b 3d
       0.05564074 0.10269253 0.06520809 0.05350073
000180 b6 e7 10 3d 0b 8a bc bd 2c 14 23 3e 32 a9 07 3e
       0.035377227 -0.09206017 0.15925664 0.13248137
000190 1b 99 60 bc 5e 7f 13 3e 10 2a 5e 3d 9c 2e a3 3d
       -0.013708378 0.14404055 0.054239333 0.079678744
0001a0 35 1a b0 3d 0e 30 e0 bb 27 30 7a 3d 90 71 68 3d
       0.085987486 -0.006841666 0.061081078 0.056748927
0001b0 87 a0 18 3e 54 be 0b bd 84 28 68 3d 3f d9 eb 3d
       0.14904986 -0.034117058 0.056679264 0.11516046
0001c0 1c ea b1 3d a3 b5 b2 bd 4d ec f7 3d 81 4c f4 bc
       0.08687231 -0.08726051 0.12105618 -0.029821636
0001d0 cd 39 07 3e f9 56 00 3e d1 34 53 3d 3a a7 71 3d
       0.13205643 0.12533177 0.05156404 0.05899737
0001e0 6b df dc 3b 4c ca ab 3d a0 69 18 3e d8 a6 27 3d
       0.0067405007 0.083881944 0.14884043 0.0409306
0001f0 f4 05 24 3d a2 2d f0 3d fe d9 f7 3c e6 1f c2 3d
       0.04004474 0.11727454 0.030255314 0.094787404

fc3.weight f4 [3, 128]
000000 2c a2 c5 bd 9a e7 83 3e d2 d6 0e bf bb fd 1c 3f
       -0.096500725 0.25762635 -0.5579654 0.6132466
000010 a4 34 ef be 2c 3e c1 3e 82 d4 d6 be 39 33 97 3e
       -0.4671985 0.37742746 -0.41959006 0.29531267
000020 c1 a2 0f bf 5d 4b aa 3e f0 e5 e0 3e 2f 65 ed 3e
       -0.5610772 0.33260623 0.43925428 0.4636626
000030 d3 35 05 3e 91 55 03 bf 79 c7 f9 3e ea 38 79 3d
       0.13008814 -0.5130244 0.48784998 0.060845293
000040 96 6a 05 bf 4d 97 13 bf 2c 21 8e 3e a5 1a 08 bf
       -0.5211576 -0.5765274 0.27759683 -0.53165656
000050 eb 86 ff 3d 01 4b 3e 3f 34 1f 6e 3e 02 3e ab 3e
       0.124769054 0.74333197 0.2325409 0.33445746
000060 ca 69 49 3e 27 0b 16 bf 25 77 af 3e 1b 82 17 3f
       0.19669262 -0.5861077 0.34270588 0.591829
000070 70 66 99 be 7c 65 a0 be d2 21 a6 bc c8 db 4f 3e
       -0.29960966 -0.31327426 -0.020279799 0.20298684
000080 c0 46 f9 be 08 3a 82 bc 04 e5 63 b8 7c c5 85 3c
       -0.4868679 -0.015896812 -5.4334305e-05 0.01632952
000090 0d 65 3c bf fd 55 0c 3f b3 66 24 bf 84 bc 03 bf
       -0.7359169 0.5481871 -0.64219207 -0.51459527
0000a0 1f ff 09 3f 7e 10 cd 3e 37 e1 d4 3d 9e 24 cb 3e
       0.5390491 0.40051645 0.10394519 0.39676374
0000b0 37 59 33 bf 8b 7b b8 3c 96 76 1c bf d1 fe d8 3e
       -0.70058006 0.022519847 -0.6111845 0.4238191
0000c0 d5 c0 2b bf 98 fa 12 bf 34 4e 72 3e b5 d3 47 3e
       -0.67091113 -0.57413626 0.23662645 0.19514354
0000d0 af 6b ac 3e 91 6d 8e 3e 54 84 11 3f b9 53 ce 3c
       0.33675906 0.27817968 0.5684254 0.025186406
0000e0 09 1f 06 3e b3 e4 96 3e c8 ae 10 bc ff 0a f4 bd
       0.13097776 0.2947136 -0.008830734 -0.1191616
0000f0 06 ea b7 3e 81 c9 64 3f fe 8c 23 bd 2f 55 a4 be
       0.35920733 0.8936997 -0.039929383 -0.3209624
000100 e9 98 4e 3d bd 90 54 bd 86 80 04 be 73 35 0f 3f
       0.050438795 -0.051895846 -0.12939653 0.5594093
000110 db 25 4b 3d 2e 57 60 be 71 af 07 3d 2c 59 b0 be
       0.04959665 -0.21908256 0.0331263 -0.34443033
000120 2c 9d 17 bf 83 d6 03 be 42 53 01 3f 16 2a 81 3e
       -0.592242 -0.12874798 0.50517666 0.25227422
000130 54 b9 38 3e 41 61 9c 3d d3 e2 af 3e 4c 2f 8c be
       0.18039447 0.07635737 0.3435274 -0.27379835
000140 b8 44 be be 54 90 fb 3e 91 82 ca 3e 0b cb 40 bb
       -0.37161803 0.4913355 0.3955274 -0.0029417898
000150 59 00 08 bf 73 3f 97 3d 7a 36 4d be f5 a3 0d 3f
       -0.5312553 0.07385149 -0.20040312 0.55328304
000160 92 3d ef be 48 bd de be 67 03 64 3e af 24 18 3f
       -0.46726662 -0.43503785 0.22266923 0.59430975
000170 e0 7f a5 3e 7a 8e c4 be c8 ea 46 bc c6 1e 26 3e
       0.32324123 -0.3838995 -0.012140937 0.16222677
000180 20 27 69 bd 16 1e 44 be 89 34 ca be 59 d0 21 be
       -0.056922078 -0.19152102 -0.39493206 -0.15802135
000190 ff 01 81 3e 4f 4d 48 bf e2 f9 06 bf 39 b1 e6 3e
       0.25196835 -0.78242964 -0.5272504 0.45057085
0001a0 c1 02 b0 3c 13 02 0b 3f 7e de 2e bf d0 d1 d1 3d
       0.021485688 0.5430004 -0.68308246 0.10245097
0001b0 41 f7 a2 3e 80 58 ba 3e 48 bf bb be 19 61 3a 3e
       0.31829265 0.36395645 -0.36669374 0.18201102
0001c0 f2 28 ec be 66 7f 63 3c d7 96 8d 3e 0a 48 21 3f
       -0.4612499 0.013885355 0.27654144 0.6300055
0001d0 aa 97 7f 3e 2b 77 52 3d 1e 3c 75 3e 7e 10 eb bd
       0.24960199 0.05138318 0.23948714 -0.11477755
0001e0 6c b7 1d 3f 11 ac d2 be 87 3d b3 3e da 30 35 bd
       0.61608005 -0.411469 0.3500788 -0.04423604
0001f0 94 01 f7 bd a1 8c ba 3d ca 75 e0 3e 88 64 4d 3f
       -0.12060848 0.09108854 0.43839866 0.80231524
000200 42 90 97 be 8d 69 22 bf 9f e7 c9 3d 45 a8 38 3d
       -0.29602247 -0.6344231 0.09858631 0.04508235
000210 6e 67 0b 3f 7f 8e 1a bf bb 8d e9 3e 27 50 3a bf
       0.54454696 -0.6037368 0.45615944 -0.7277855
000220 3c 6f 1b 3e f8 7c 36 bf de 60 2d be 53 39 63 bb
       0.15179151 -0.7128444 -0.16931483 -0.003467162
000230 6f 94 eb 3d 3e 9d 04 3f 34 f9 1e bf 9e f3 02 bf
       0.11502921 0.5180243 -0.62099004 -0.5115298
000240 ef 06 cc 3e 9e f3 62 3e 96 b1 ab 3e 1d 8e 07 3e
       0.3984904 0.22163245 0.33533925 0.13237806
000250 13 5b 36 3e 23 80 3d bf 31 3a ff 3e 6e 58 3a bf
       0.1780818 -0.74023646 0.49849084 -0.72791183
000260 71 a0 0e bf 81 bc 9b 3e 11 a2 d6 be 01 86 92 3d
       -0.55713564 0.30417255 -0.41920522 0.071544655
000270 46 ed cb 3e 1b 96 1e 3e 94 aa 05 3f 82 91 19 bf
       0.39829463 0.15486948 0.52213407 -0.5998765
000280 64 de 5c 3e fe 87 d6 be cc 60 3c bc ec a3 cd 3e
       0.2156921 -0.4190063 -0.011497688 0.40164125
000290 28 c8 99 3e 41 60 08 bf 86 f8 2b 3e 0e ed e5 3d
       0.3003552 -0.5327187 0.16794023 0.11226855
0002a0 e5 55 48 3e 79 af ec be be cd 24 3f 65 66 e9 3e
       0.19564016 -0.46227625 0.6437644 0.45585933
0002b0 27 4c 64 bd cd 02 c7 3e f0 1f e1 3e 59 be 51 3e
       -0.055736687 0.38869324 0.4396968 0.20482768
0002c0 05 01 f9 3b 4c 24 ac 3d b3 e6 f0 3e 5a 1d a7 3e
       0.0075989985 0.084053606 0.4705101 0.3263958
0002d0 29 1b 11 bf 60 f3 a7 3e 32 db 0f 3e 3c b0 e3 be
       -0.5668207 0.32802868 0.1404846 -0.44470394
0002e0 36 05 01 bf 5d dc 45 bf e7 95 e0 3e cb 16 ff be
       -0.50398576 -0.7728937 0.43864366 -0.49822077
0002f0 b7 18 1f bf c1 c7 63 bf 01 c0 07 bf 66 ac 1b be
       -0.62147087 -0.88976675 -0.5302735 -0.15202484
000300 e8 b0 0e bf ba 7d 80 3e 73 09 d3 3e a0 71 14 bf
       -0.5573869 0.25095922 0.41218147 -0.5798588
000310 7c b8 f6 3e 81 6f 9f 3d 63 b0 98 3e 3f 17 e9 be
       0.48187625 0.077849396 0.29822072 -0.45525548
000320 65 35 75 3e 99 54 00 3f 98 47 0a bf 3f ac 0c bf
       0.2394615 0.50129086 -0.54015493 -0.54950327
000330 df c0 c7 3e 5c 56 e9 be 5d ad 0e bf 91 21 00 3f
       0.39014336 -0.455737 -0.5573328 0.5005122
000340 dc b6 6a be e2 88 58 bd 89 98 40 3e 5a d5 c8 bb
       -0.22921318 -0.052864917 0.18808188 -0.006128949
000350 fc 8c 23 3e 7d 4e 3c 3e 02 1d 56 3d 58 70 47 3c
       0.1597175 0.18389316 0.052273758 0.012172781
000360 a8 85 2c 3e 90 4c da bd 3a 37 57 bf 56 6c 05 be
       0.16847861 -0.106591344 -0.84068644 -0.13029608
000370 5e a2 b0 be bf 7c b7 3d 4d c2 04 bf d0 9a f8 be
       -0.34498876 0.0895934 -0.5185898 -0.48555613
000380 3a 5e 1e bf 46 e3 d6 3e f1 30 a8 3e 3d 1d 57 bf
       -0.6186253 0.4197027 0.3284984 -0.8402899
000390 59 7d 88 3e 52 6e 16 be df 1f ac 3e 85 5a 27 bd
       0.26658133 -0.14690521 0.33618066 -0.04085781
0003a0 9e f7 85 3d f7 05 8b be 8e b7 55 3e bf 77 f8 be
       0.0654137 -0.27152988 0.20870802 -0.4852886
0003b0 f8 e5 f7 3e 01 8b 37 3e 49 d9 33 3e 65 aa df 3e
       0.4841764 0.1792412 0.17563356 0.43684688
0003c0 4e 8a a0 3d 4c 16 fa be 11 a2 26 bf 31 aa 8d be
       0.078388795 -0.48845136 -0.65091044 -0.27668908
0003d0 b4 3a 32 bf df 7b b3 3e 8e 19 24 bf 95 33 cf 3e
       -0.69620824 0.35055444 -0.64101493 0.4046904
0003e0 6b c6 cb be 94 21 9b be c8 a2 51 bf 4c d3 02 be
       -0.39799818 -0.30299056 -0.8188901 -0.12775916
0003f0 08 cd bb be db 40 fe 3e 53 ba 04 bf 0c 36 27 bf
       -0.36679864 0.49658856 -0.5184681 -0.65316844

fc3.bias f4 [3]
000000 1a e9 ae bd 50 46 92 3c dc 74 85 3d
       -0.08540554 0.017855793 0.0651643
